level2/classicSnake/model_saves/pretrain_model_2025-12-04_13-31-51.pt (torch, 444164 bytes, 8 tensors)

conv_layers.0.weight f4 [32, 4, 3, 3]
00000000: 171f 10bd 572f 6a3d 2dbc 4ebd eda1 3c3d
00000010: 9639 433e 8134 873d a3bc 0abe 5c65 763d
00000020: c2a5 3ebe abea 89bc 3817 ff3d 407c 083c
00000030: 92a6 4b3d d92c 6f3e 1168 313e 1581 c3bb
00000040: 7d14 1f3e e0f0 82bc 8e36 90bc af4a 87bd
00000050: 9f30 c9bc b706 63bd f8ad 85bd c213 2b3c
00000060: 47ff 73bc 5618 8ebc 2b6c 02bd 8c0e 133e
00000070: 217c 693e 6445 113e 7dc6 ae3e a34d cb3e
00000080: 70a2 dc3e b06f 073e 60b5 483e 4ac7 433e
00000090: 6f8a da3c 7078 863e e952 5e3e e5b3 6bbd
000000a0: 62d9 893e 350b 453f b61d 173f 7fc5 233f
000000b0: da75 e13e 9282 3ebb 614d 3ebd cdf3 0abb
000000c0: f19f 0fbc 3e0f 613d 9ba6 7fbd 5582 d4ba
000000d0: 0ccd 45bd f308 3e3d c00b 9abc 9707 b23b
000000e0: 55dc 77bc 956e 71bb e05f 35bc 0ee5 433c
000000f0: 5507 883a 35c2 03bc 5ef3 d0bb 6629 debd
00000100: b9ac 9fbd c193 32be c67e 89bd b1fb b9bc
00000110: db3c 22be 7927 97bd 64df 1cbe 518f 29bd
00000120: 66de 4f3f f855 433f 9869 383f 7bf4 1b3f
00000130: ecdb 39be 9ba8 433f d664 133f 9e9f 2b3f
00000140: fdf5 1b3f feff 7cbc f9ce 47bc daf3 01bd
00000150: e8c0 8fbc 1baf 0abc b4e8 b8bc 521b 9dbc
00000160: 3789 2bbc 3169 13bc 8ed2 843c 7a7d ad3b
00000170: dc2c e23b 1ab0 6a3a 0d25 a73c e9c3 2abc
00000180: 8d78 acbc f8bd adbc 50d6 c63b c6b3 203c
00000190: 40bd 473e 6aef 9b3d 109d 613e 0b4e 303e
000001a0: 684c e63d bce8 8b3c a8e0 bb3d 6d2e 703c
000001b0: 1802 1cbe af9d 9dbd e4c3 b53c cdda 1abc
000001c0: 1fc5 c83d 5966 febd 9223 21be 6633 90be
000001d0: 07e4 1fbe 7177 cabd 6c5a ca3c d2da 70ba
000001e0: 64f7 19be 390c af3d 4ea4 e6bc 1728 b4bd
000001f0: 9fa2 39be 3b8a 9cbd 8d96 c7bb 9184 ecbb
00000200: 5c43 32bb a894 09bd b535 4b3b 0bfa 18bc
00000210: b60f 94bc adc7 a0bc 6e30 b1ba 545d 073e
00000220: b5a7 943c 64c2 a5bd 5fa7 b9be a0c0 d6be
00000230: f51f 9fbd b0c2 08bf 5521 04c0 1240 813e
00000240: aa99 2dbc 6108 b8bd ec6a cebc a2fb 54bd
00000250: 0d58 243e e15a 13be f48b 6c3c 9ef1 f6bd
00000260: 1f6e 69bb 0e25 303c 4de6 8a3d f659 b4bc
00000270: 5cfd 7cbc f9e0 083f 5fb8 44bc 89d9 f83c
00000280: 5f21 ec3d dc16 a2bb a7df fc3a aac0 5dbc
00000290: d718 9d3b 885f b639 9f21 c1ba 86d1 a2bc
000002a0: e30a 0ebd 22d9 6bbb 6712 433c e804 8dbe
000002b0: 6117 a1bf 0f7d bcbe 0f99 41bf 3731 a6bf
000002c0: d6f9 8abf 93fb 97be aa67 bebf 363c acbe
000002d0: 1131 963d ec29 a23d 4baa 843c 54d0 843c
000002e0: 9c6f 5ebd 5a9f 58bb 1095 3bbe 2e24 063d
000002f0: 8326 7bbc b2e1 c0bb cbbd f73b 7e1d 5bbd
00000300: ff3e d03d d975 0d3e 8ecf 023d 47db 1bbd
00000310: 1724 513c 5e29 19bd 8c31 f2bb b622 05bd
00000320: 48db 06bc ee69 4ebd 1e14 e73b 4ab7 88bc
00000330: 7933 af3b ce57 54bc e957 a33b 1aaf a3bd
00000340: be4b 883e f22a 803d 0d12 283e 0d55 c53e
00000350: 2c5f 72bc c7f7 873d d20b 3f3e ac52 bcbd
00000360: ba06 67bd b4c4 5dbc c567 163e da3f 40bd
00000370: 9d95 f8bd 24ba 993e bbcc d53d f92e a33d
00000380: 7527 943e 33cb 443c 69cf e5bc f99c a6bb
00000390: 0e79 0d3c 1a26 033d 7f30 3c3d 2b0c cb3d
000003a0: b960 833e 0bbd 843e 645b a33c 5b5f 6d3b
000003b0: cb67 5d3c 7b27 9ebc 920d e9b8 fe35 703c
000003c0: 4692 29bc b458 c239 a07a 6f3c d21f a9bd
000003d0: 155f cb3d f0fe 1ebd 0acd c5bd 4de2 9f3c
000003e0: 6ee2 57be 94a7 a63d 1370 383d f25e 2cbd
000003f0: db6b 0fbd 047d 7abd 7f82 c7bd 02e7 6abe
-0.0351859 0.057174053 -0.050472427 0.046052862 0.19064936 0.06601811 -0.13548522 0.060155258
-0.18617919 -0.016835531 0.124556005 0.008330405 0.0497194 0.23356952 0.17324854 -0.0059663155
0.1553516 -0.015983999 -0.017604139 -0.06606042 -0.024559317 -0.055426326 -0.065273225 0.010441722
-0.014892406 -0.017345589 -0.03184144 0.14361018 0.22801258 0.14186627 0.3413581 0.3970767
0.4309268 0.13226199 0.19600439 0.19118991 0.026677338 0.26263762 0.21711315 -0.057544608
0.26923662 0.76970226 0.5902971 0.6397323 0.44035226 -0.0029069525 -0.046460513 -0.0021202445
-0.00876616 0.054946177 -0.062414747 -0.0016213158 -0.04829125 0.046395253 -0.018804431 0.0054330337
-0.015128215 -0.0036839594 -0.011070222 0.011956466 0.0010378162 -0.008041908 -0.006376668 -0.1084774
-0.07796616 -0.17439176 -0.06713633 -0.022703024 -0.15843527 -0.07380576 -0.15319592 -0.041396443
0.8119873 0.7630305 0.72036123 0.6091992 -0.181503 0.76429147 0.5757574 0.6704043
0.60922223 -0.015441893 -0.012195342 -0.031726696 -0.01754804 -0.0084646 -0.022571899 -0.019178066
-0.010469726 -0.008997248 0.016213682 0.005294499 0.0069023203 0.0008952633 0.02040341 -0.010422685
-0.021053577 -0.021208748 0.0060680285 0.009808486 0.19505787 0.07614024 0.22032571 0.17217271
0.11245042 0.01707875 0.09173709 0.014659506 -0.15235174 -0.076960914 0.022188134 -0.00945158
0.09803223 -0.12421865 -0.15736225 -0.28164214 -0.1561433 -0.09886063 0.02470132 -0.000918788
-0.15035778 0.08547253 -0.028154518 -0.08796709 -0.18128441 -0.07643553 -0.006090945 -0.0072179516
-0.0027200794 -0.033589035 0.0031007354 -0.009336959 -0.018073898 -0.019626463 -0.0013518461 0.13219196
0.018146375 -0.08093718 -0.36260507 -0.41943836 -0.07769767 -0.5342207 -2.0645344 0.25244194
-0.010595718 -0.08985973 -0.025197469 -0.05199779 0.16049214 -0.14390136 0.014437664 -0.120578036
-0.0035618616 0.010751022 0.06782208 -0.022015553 -0.015441265 0.5346828 -0.012006848 0.030377166
0.115298025 -0.0049465727 0.0019292728 -0.013534704 0.004794221 0.0003478492 -0.0014734751 -0.0198753
-0.03467835 -0.0035987576 0.011906243 -0.27542806 -1.258526 -0.36814162 -0.75624174 -1.2983769
-1.0857494 -0.29684123 -1.4875386 -0.33639687 0.073335774 0.07918152 0.016194483 0.01621262
-0.054305658 -0.0033053965 -0.18318582 0.032749347 -0.015329006 -0.00588628 0.007560467 -0.053494923
0.101682656 0.13814487 0.03193622 -0.038050916 0.012764952 -0.037392966 -0.0073911604 -0.032503806
-0.008230992 -0.05039399 0.0070519587 -0.016688962 0.005346712 -0.012960387 0.004984845 -0.07992382
0.26620287 0.06258191 0.16413136 0.3854145 -0.014793199 0.06639057 0.18656853 -0.09195456
-0.0564029 -0.013535667 0.14688022 -0.046935894 -0.121379115 0.30024827 0.1043944 0.07967944
0.28936353 0.012011337 -0.028053002 -0.0050846306 0.008634819 0.03201876 0.045944687 0.0991443
0.2565973 0.25925478 0.01994104 0.0036220166 0.013513516 -0.019305935 -0.000111128335 0.01466131
-0.010349816 0.00037068652 0.014616638 -0.08258022 0.09930245 -0.038817346 -0.09658249 0.019517088
-0.2108247 0.08137432 0.045028757 -0.042082734 -0.03501497 -0.06115438 -0.09741687 -0.22939685

conv_layers.0.bias f4 [32]
00000000: f90e 30ba 1548 b43d 57f1 8fba 31e2 1e3e
00000010: 5784 10bd e982 2d3e c6ec 28be fce0 873e
00000020: 119e c1bc 2755 2f3e 684d 903e ba8a 4c3e
00000030: 4678 e636 e874 913e add0 7eba 94e8 fdba
00000040: c7bb 4ebc 787c 55bc 5140 05be 5eb0 4abd
00000050: 7739 60be b4da 5ebb df9c 913e aca2 303e
00000060: f4f2 1d3e 6dec 3bb7 1048 7b3e 5bc4 69bb
00000070: 53d5 11bc d3a6 b9bd abd8 12bc ed81 a2bd
-0.0006716098 0.08802811 -0.0010981959 0.15515973 -0.03528246 0.1694447 -0.16496572 0.26538837
-0.023634942 0.17122327 0.28184056 0.19974795 6.868536e-06 0.28409505 -0.0009720426 -0.0019371682
-0.012618012 -0.013030164 -0.13012816 -0.049484603 -0.21896921 -0.003400487 0.28439996 0.17249554
0.1542471 -1.1201116e-05 0.24539208 -0.0035670015 -0.008900958 -0.09065022 -0.0089627905 -0.079349376

conv_layers.3.weight f4 [64, 32, 3, 3]
00000000: df22 a1bb 1700 d23c 7a61 58bd 8657 863d
00000010: 0f8f ae3d 52c2 8dbc bfe9 02bd b427 373e
00000020: 1326 5d3c cba9 1cbe 05ca 7c3d d643 403e
00000030: 4827 78bc 2619 b43c 4eea 3bbe cefc 533e
00000040: 8b8d 4d3e f75d 81be cbac ca3d baeb 4b3e
00000050: a7d1 ff3d 1fbb 123e 2140 393e 1762 11bd
00000060: e9aa 4bbd 1327 ce3d 452b 023e f7d8 4139
00000070: 2589 6e3d 921e a8bd 9550 753d 49c5 ac3d
00000080: 0bab 513d 2caf e03d b715 67bd a83e 873d
00000090: a960 66be 6fd8 8fbc 973a fa3d f0de d4ba
000000a0: d672 2dbe 028e ebbd 3b51 f7bd 25e1 d6bc
000000b0: cff5 e5bc 57e4 2abe da30 5ebe f52f b8ba
000000c0: e877 d53c 1020 cabd 7b49 ae3c 62fd 323e
000000d0: 90e9 6f3d 2ef1 10bc 5a47 8d3d bef0 603c
000000e0: b85b d23d cdcf 923e 069d e3bd 47e9 65bd
000000f0: 3a4e 26bd e73d 7c3e 0250 aabd 32dc 8abd
00000100: 963a e0bd 7d97 cebd 433b 043d 3a0d 3fbd
00000110: cc7c a23c 02f4 413d 7f90 663c 7d04 9fbd
00000120: 00c5 febc 4d6b 1cbc eb78 e73d c76b d33d
00000130: e7d5 95bb 84c7 893c fe85 6e3d 067a e23c
00000140: fdb1 e7bd 54c0 15be 5999 28be 6745 dfbd
00000150: 21de 0c3e e3b2 543d eb79 403e 4488 fe3d
00000160: 0030 3dbd 172c 3f3d da21 1abe 2ac2 04be
00000170: 3816 01be c26d 8f3e 3889 a53d cca7 c43c
00000180: e9b3 ac3d 2a36 f43d 19b8 343d 72af 34bd
00000190: 5efc d2bc 4e8f 3d3c 216c 7d3e 2a66 1a3e
000001a0: e7e1 5c3e 4321 4f3d b159 ba3c e1b4 9d3d
000001b0: c886 f23c 0f21 e83d 1e34 053e bc9e fe3c
000001c0: 1d55 75bd 0e71 b6bd 8ce1 0dbd b427 df3d
000001d0: b12d 703c 3698 b43c 5397 5dbe 0c15 bdbd
000001e0: e157 b13e 87a9 033e 5636 143e 1481 023e
000001f0: c8c4 9a3c 965d bf3d 6b9c 8f3c 57df 22be
00000200: c632 b93d 7edc 39be 00a9 2cbe dd39 823c
00000210: c750 b7bd 136f 3ebd 1e50 3bbe d501 f73d
00000220: 5d66 bc3d 8f17 10be 6af4 46bd 6e16 3a3d
00000230: 7ed0 66bd 758d 4f3c 9be5 9ebc 3489 6dbd
00000240: f4c0 a93d d6d1 03be 9e80 5bbd ae3f 1dbe
00000250: 2104 333d 553c 693d a620 4b3c 732b 973d
00000260: 6356 093e eddf 43bd 2394 8ebc de58 a83d
00000270: c0de 93bc d0f9 8e3c 1367 523e 821c 883e
00000280: 8c11 5dbe 653e 9d3a 25fc 423e 6720 0cbf
00000290: 69ea 473e 26d2 a0bd ffc6 953d 56ef 8f3e
000002a0: 541e 3bbc 8d83 0c3e 9b98 db3e 3155 efbc
000002b0: bf0d 97bc b01a 1d3e 351f bd3c 3ae1 2dbe
000002c0: d176 25be 630c ca3d 2e8d e6bd afd0 c8bd
000002d0: e734 df3d 0fe3 063e f22b 883b 84e6 0ebd
000002e0: db69 3ebd 9d2d a7bd 89f3 84bd e06f 613b
000002f0: c3f0 153d 88bc 673d 7867 2e3c c2b7 5eba
00000300: 3ca8 de3d 45dc 2cbc 8101 743d c8e6 1b3d
00000310: 705f 4c3d 002c 483d 5963 d2bd 8b30 04be
00000320: 70d8 b4bd 86cb 5d3e 29e5 91bc 9a7e ce3c
00000330: 0b49 223e 5901 543d 1fc0 ebbc 24ba 52bd
00000340: ae50 bbbd 33b6 18be 439a 8d3d d7aa aa3d
00000350: e73f db3c b268 343c 1105 0abe 4f19 b9bd
00000360: 81f7 b2bd f4db 81be c5b0 b1bd f2b3 9f3d
00000370: caa9 2a3d d53d e7bd 41c3 873d 3d92 febc
00000380: ae3d 66bc 35d0 eb3d c170 98bd ec80 8d3d
00000390: 3362 9cbd 7629 0f3e 39a5 0abe 63ee 853d
000003a0: 3249 cf3c de6f eb3c f20f 39bc 1567 0cbe
000003b0: a6fe f7bd fd92 c53e 8d2a cd3d 3d53 263d
000003c0: 0b02 503e 3242 8f3d 9e53 813c de43 1fbe
000003d0: 5abd 1cbd 7d5a 953d 7038 853d 05ec 813d
000003e0: a211 363c a1d7 85bd b81e 1dbe 0375 1b3e
000003f0: 66a1 f4bd d121 173e e25c cf3b 08c5 76bd
-0.004917487 0.025634808 -0.052827336 0.065596625 0.0852338 -0.017304573 -0.0319612 0.1788624
0.013497847 -0.15299146 0.0617161 0.18775877 -0.015146084 0.021984648 -0.18351099 0.20701906
0.20073526 -0.25267002 0.09896239 0.19914141 0.1249116 0.14329194 0.1809087 -0.035493936
-0.04972354 0.100660466 0.12711819 0.0001848674 0.05823626 -0.08208956 0.059891302 0.08436067
0.05118851 0.109709114 -0.056417193 0.066037476 -0.2249781 -0.017559258 0.122182064 -0.0016240757
-0.16938338 -0.11501695 -0.1207604 -0.026230404 -0.028071312 -0.16688667 -0.21698323 -0.0014052378
0.026058152 -0.09869397 0.021275273 0.1747947 0.058572352 -0.008846564 0.06898375 0.013729272
0.102714 0.28674164 -0.11113934 -0.056130674 -0.040601946 0.24632989 -0.083160415 -0.0678028
-0.109486744 -0.10087488 0.03228308 -0.046643473 0.019834898 0.047351845 0.0140725365 -0.07764528
-0.031099796 -0.009547067 0.1130236 0.10323291 -0.0045726183 0.01681877 0.058233254 0.027646076
-0.113132454 -0.14624149 -0.16464747 -0.10901909 0.1375661 0.051928412 0.18796508 0.12428334
-0.046188354 0.046672907 -0.15051976 -0.12964693 -0.12606132 0.28013426 0.08082813 0.024005793
0.08432753 0.119243935 0.04412088 -0.04411263 -0.025755104 0.011569811 0.24748279 0.15078035
0.2157055 0.05056883 0.022747846 0.077005155 0.029605284 0.113344304 0.13008162 0.03108155
-0.059895623 -0.08908282 -0.034638926 0.10896245 0.014659331 0.022045236 -0.21639757 -0.0923253
0.3463736 0.12857638 0.14473853 0.12744552 0.01889266 0.09344022 0.01753064 -0.1590551
0.090428874 -0.18150517 -0.16861343 0.015896732 -0.08950954 -0.046492647 -0.18292281 0.12060896
0.09199212 -0.14071487 -0.048572935 0.045431547 -0.056351177 0.012668003 -0.019396594 -0.057992175
0.08288756 -0.12873015 -0.053589456 -0.15356323 0.04370511 0.056942303 0.012397921 0.07381334
0.1341186 -0.047820974 -0.017404621 0.08220075 -0.018050551 0.017453104 0.20547132 0.2658425
-0.21588725 0.0011996744 0.19041498 -0.5473694 0.19523014 -0.07852583 0.07313346 0.28112286
-0.011420805 0.13722058 0.42889866 -0.029215427 -0.018439172 0.15342212 0.02308617 -0.16980448
-0.16158606 0.09865644 -0.11257397 -0.09805428 0.10898762 0.13172553 0.0041556293 -0.034887806
-0.04648767 -0.08162997 -0.06491763 0.0034398958 0.03660656 0.05657628 0.010644786 -0.000849601
0.10871932 -0.010550563 0.059571747 0.038061887 0.049895704 0.048870087 -0.10272855 -0.12909143
-0.08830345 0.2165967 -0.017809467 0.025206853 0.15848176 0.051759098 -0.028778134 -0.05144705
-0.09146248 -0.14913253 0.06914189 0.08333366 0.02676387 0.011011289 -0.13478495 -0.0903803
-0.08738614 -0.25363123 -0.08676294 0.07797994 0.04166583 -0.112910904 0.066290386 -0.031075591
-0.0140527915 0.11514322 -0.07443381 0.069093555 -0.076359175 0.1398066 -0.1353959 0.06539609
0.025303457 0.028739866 -0.011295306 -0.13711198 -0.12109117 0.38588706 0.100178815 0.040606726
0.2031328 0.06995048 0.015786942 -0.15553233 -0.038266517 0.0729265 0.06504905 0.06343845
0.011112602 -0.065352686 -0.1534375 0.15181355 -0.11944847 0.14758994 0.006328211 -0.060246497

conv_layers.3.bias f4 [64]
00000000: 15d3 2f3e d64a 34bc fd01 ad3d 4b05 673d
00000010: f34d 0d3c 15ba 64bc 5f6e cbbd 7bea 87bd
00000020: 461e 8fbd a9e4 57bd bf47 813e 8a97 84bc
00000030: 448c c0ba 987a 933e 6216 b33d 2a6c ca3d
00000040: 5399 df3c 519c 7f3e 9405 673e cd5c 143c
00000050: 3121 7ebc 8661 5ebc a5be 563d 3c4a b2bd
00000060: 8b00 823e 7f79 be3d 27ac 16bd c0f1 14bc
00000070: f839 d63d af96 1f3c ff41 cd3d 9e77 88bd
00000080: 3b55 95bc fcde 4bbd 8610 663e a6c4 c03d
00000090: a7df 153d 8aee 073d 50d1 13bb cb82 093e
000000a0: aca8 e43c 6e26 09bd b682 863c 685e 163d
000000b0: 10ec dd3d f4ad 8bbd ca76 f1bc 805e afbc
000000c0: 6463 4f3c 883b d83c af02 18bd cd97 693d
000000d0: 609a 1d3d eb97 953e d899 fd3d 34cb bb3d
000000e0: 7ba6 483e a4da 11bc 1fea f13c dd90 323d
000000f0: 5100 d83c d99b 503d a72c 4f3e 4049 7dbd
0.17170365 -0.01100417 0.08447645 0.056401532 0.008624542 -0.013960381 -0.09933161 -0.066365205
-0.06988196 -0.0527083 0.2525005 -0.01618554 -0.001469024 0.2880447 0.087445036 0.09883912
0.02729479 0.24961974 0.22560722 0.009055329 -0.015510843 -0.013573056 0.052427907 -0.08705565
0.2539104 0.09300517 -0.03678527 -0.009090841 0.104602754 0.009740516 0.100223534 -0.0666344
-0.018229118 -0.0497732 0.2246724 0.09412508 0.036590245 0.033186473 -0.002255518 0.134288
0.02791246 -0.033483915 0.01641975 0.036711127 0.10836041 -0.06820288 -0.029475588 -0.021407366
0.012657974 0.026395574 -0.037111934 0.057029534 0.0384773 0.29217467 0.12382859 0.09169617
0.19594757 -0.008902226 0.029530583 0.043595184 0.026367338 0.050929878 0.20231877 -0.061837435

conv_layers.6.weight f4 [128, 64, 3, 3]
00000000: 4e5f 2c3c 7be9 a0bc 2908 be3c efa9 38bc
00000010: 61c3 29bd 0086 8c3c 19f7 a33c 25c0 ecbc
00000020: e6c5 21bb 1f63 ecbc cd97 13bd ac5c 303c
00000030: 44c3 6abd 2cf4 cebb 0294 17bd 9753 01bc
00000040: a2fc adbc 3de7 673c 2300 803c 743a 5dbd
00000050: 206d 8bbc 0150 f1bc 4034 72bd 49de 2ebd
00000060: f8bc d2bc 7691 81bc 1d4b f73c e8be 1bbc
00000070: f3d1 643c 69f3 21bd 1686 36bd 2165 93bc
00000080: 0e90 1ebd b829 4a3c 4583 dcbb cbd0 3ebd
00000090: a5e8 41bd f7ce 0fbb 0778 0a3c 163d bcbc
000000a0: 6893 0dbd 0a4a af3c f85c 83bb 540d debc
000000b0: 65d6 ef3c 7ba0 8abc d799 10bd 941a 15bc
000000c0: dc33 f6bc 0898 cabc 5dab babc ef12 9d3c
000000d0: e76e 84bb c41c 973c 2c80 80bc 9403 ed3b
000000e0: 8802 04bd 0187 823a b377 8dbb 7c15 6a3c
000000f0: afa6 e1bc ff3a 76b9 09bc 9fbc fbdd b1bc
00000100: 363b edbc f13f 3ebc cee0 453c b633 993c
00000110: b0c2 86bc bb9c 073d b927 7f3c 0ab8 30bd
00000120: 3b27 e33c 3695 16bd 1316 8cbc 19a4 18bd
00000130: 2b1b b3bc e275 33bd 415d 33bd 8fd9 1fbd
00000140: 661d c7bc 658c b6bc 31a0 b03b e71e 31bd
00000150: 6435 90bc 655a 1f3c 6fc3 f43b ca14 463b
00000160: eba8 30bd a190 ab3c 8c8b 00bd fc66 8ebb
00000170: 67fa 04bd a8d2 ecbc c2a4 553b 7e76 01bd
00000180: 7b3a 1bbd e980 26bc 6e56 873c 9df0 4dbd
00000190: c1cf 85bc e37b 8fbc 4723 6fbc a2b0 5bbc
000001a0: 2ec8 e53c 5728 c9bc dcf3 1cbd 08be a03b
000001b0: c601 9e3a c760 23bd e91c 0d3c 70a9 74bd
000001c0: ad70 87ba 443f 893c 8aa8 35bd 5968 7ebc
000001d0: a5d3 543c 0718 5dbb 3d37 19bc 03a4 0fbd
000001e0: b4c9 4e3c ec3d 6ebd 4292 c2bb 7818 e7bc
000001f0: e0f6 23bd f97f c0bc 72e2 7c3c c741 6abd
00000200: 6229 c13c 493a 823c 3e7b 35bd 8282 043c
00000210: b8e8 aabc a13b 33bd 1179 25bd fcaf 61bc
00000220: 4c44 55bd d396 2ebc 1446 e23a 9a6b f1ba
00000230: e032 3ebd b924 243c 467f d3bb 1f41 103c
00000240: f204 853b ce93 69bd 6207 e0bc 1e16 9dbb
00000250: e414 81bc cd0a 90bc 26a4 e1bc 34b5 a9b9
00000260: 82dd 81bc 6918 1ebc 6a34 21bd 91b6 123d
00000270: 604a 86bc 4e29 02bd d8e3 1ebd 860c 0f3d
00000280: 8c05 13bd d6cd 26bd 4f7a c9bb 045a 32bd
00000290: 8741 ce3c b06d 66bc 268d 3ebd 2fe6 2cbd
000002a0: bf1c 0bbd 78ef 0a3d 8313 8fbb 27db 3fbd
000002b0: 2f13 573c b8c8 163c ed17 0e3c 71cb d53b
000002c0: 6eb5 ad3c 84a2 783c e1c9 4c3c aff6 393c
000002d0: b113 42ba 7ec4 06bd d5b6 69bc d1e0 1dbd
000002e0: cf9b 32bd 1709 113d 84fe 953c 3be8 e43c
000002f0: a692 873c 3faf ea3b 6c85 643b 6495 0ebc
00000300: 18d9 77bd 2c32 b5bb 20ea 90bc 1827 02bd
00000310: e1d0 ce3c 68ff 013d 0f77 9c3c 03da 13bd
00000320: 00f9 b9bc 4b8b 593c 07e0 073b 7d4e 2bbc
00000330: 6260 02bd c3c7 97bc 78c9 86bc 71e0 40bd
00000340: b5a0 65bd ed97 56bc 3e5c 403c 2aea e0bc
00000350: 510f 613c 54f8 67bb 31cb 24bd fc11 f83c
00000360: b2da 633c e278 f8bc 267e 233c f42a a3bb
00000370: bdc4 44bd ce80 463b 84a6 f1bc 909c 753c
00000380: bb43 1bbd f009 a7bc 0bb9 10bd 4eef 25bd
00000390: 4d8b 93bc 212a 05bd be82 00bc 8dec 6bbb
000003a0: 0987 e23c 17d0 0dbd dcbb 6fbb a686 36bd
000003b0: b764 743c c456 e9bb 5150 593c 4eac b6bc
000003c0: 2989 caba 4a9c 70bc f812 1ebd 7648 63bd
000003d0: 7c85 8d3c 4ec6 7ebb b2b5 123b 24da 74bd
000003e0: ab13 e43c 6033 8d3c d2cb 783c 3f19 b13c
000003f0: 902e 4dbd b44a a3bc 917f 2abd 7de2 d4bc
0.010520769 -0.019642582 0.02319725 -0.011270984 -0.041446093 0.01715374 0.020015286 -0.028900215
-0.0024684607 -0.028855858 -0.03603344 0.010764282 -0.057315126 -0.0063157286 -0.037006386 -0.0078934645
-0.021238629 0.014154253 0.015625065 -0.054010823 -0.017019808 -0.029457094 -0.05913186 -0.042692456
-0.025724873 -0.015816431 0.030187184 -0.009505965 0.013966071 -0.039538775 -0.044561468 -0.017992558
-0.0387116 0.012339048 -0.0067295157 -0.04658584 -0.047341008 -0.002194343 0.008451468 -0.022978347
-0.034564406 0.02139761 -0.0040088855 -0.027105965 0.029277036 -0.016922226 -0.035302963 -0.009100575
-0.030054025 -0.024730697 -0.02278679 0.019174067 -0.004041541 0.018446334 -0.015686117 0.0072330926
-0.032228976 0.0009958447 -0.004317248 0.014287349 -0.027545301 -0.00023482366 -0.019498842 -0.021712294
-0.028958898 -0.0116119245 0.012077523 0.018701416 -0.016450256 0.033108454 0.015573435 -0.043144263
0.027728667 -0.036763392 -0.01710037 -0.03726587 -0.02186354 -0.043813594 -0.043790106 -0.03902584
-0.02430601 -0.022283742 0.00539019 -0.04324236 -0.017603584 0.009726142 0.0074695866 0.0030224794
-0.043129843 0.020942988 -0.031383082 -0.004345773 -0.032465365 -0.028909042 0.0032599424 -0.031607144
-0.03789757 -0.0101625705 0.016520705 -0.050278295 -0.016334416 -0.017515128 -0.014595813 -0.013408812
0.028049555 -0.024555368 -0.0383185 0.004905466 0.0012054972 -0.039887216 0.00861285 -0.0597319
-0.0010333263 0.0167538 -0.044350185 -0.015527808 0.012989913 -0.0033736245 -0.009351549 -0.035068523
0.012621332 -0.058164522 -0.0059378454 -0.02820991 -0.04003036 -0.023498522 0.015434848 -0.057191636
0.023579303 0.015896933 -0.044306986 0.008087756 -0.020862922 -0.04375804 -0.04039866 -0.013774868
-0.052067086 -0.0106560765 0.0017263317 -0.0018418909 -0.046435237 0.010018521 -0.006454381 0.008804589
0.0040594274 -0.057025723 -0.02734727 -0.0047938963 -0.015757032 -0.017583275 -0.027544092 -0.000323692
-0.015852693 -0.0096493745 -0.039356627 0.03581864 -0.016392887 -0.031777672 -0.038791507 0.034924053
-0.03589396 -0.040723644 -0.0061486135 -0.043542877 0.02517773 -0.0140642375 -0.04652133 -0.042211708
-0.03396296 0.03391978 -0.0043663397 -0.04683986 0.013127132 0.0092031285 0.008672697 0.0065244962
0.021204676 0.0151754655 0.012499304 0.011350318 -0.0007403447 -0.032902233 -0.014264782 -0.03854448
-0.043605622 0.03540906 0.01830984 0.027942767 0.01654942 0.0071620042 0.0034869565 -0.00870261
-0.06050977 -0.0055296626 -0.017689764 -0.031775564 0.025246086 0.031737715 0.01909974 -0.036096584
-0.02270174 0.013277839 0.0020732896 -0.010455725 -0.0318302 -0.018527871 -0.01645349 -0.047089044
-0.056061465 -0.013097745 0.011740742 -0.027455408 0.013736562 -0.0035395818 -0.04023284 0.030282013
0.0139071215 -0.030331079 0.009978807 -0.0049794856 -0.048039187 0.0030289176 -0.029498346 0.014990941
-0.03790639 -0.02039048 -0.03533272 -0.04051142 -0.01801076 -0.03251088 -0.007843671 -0.003599915
0.02765228 -0.034622278 -0.0036580479 -0.044562005 0.01491659 -0.007120939 0.013263778 -0.022298958
-0.0015452254 -0.0146857 -0.03859231 -0.055489026 0.017275564 -0.0038875523 0.002238613 -0.059778348
0.02784141 0.017236412 0.015185313 0.021618484 -0.050093234 -0.019933082 -0.041625563 -0.025986904

conv_layers.6.bias f4 [128]
00000000: d78d 33bc d021 393e 9e19 a73d b76b 1fbd
00000010: ef75 24bd b12f 3ebd 478c 0e3d 820f 743e
00000020: 3eb1 a33b 7c26 423e 1993 633e b283 523e
00000030: 36c4 903e 4b63 ceb9 a7e7 393c f325 ab3e
00000040: 0c41 a33b ab9b bb3e b924 58bd 8b7f 99bc
00000050: c837 053e cec4 cb3d e4f9 833e 691e 3b3e
00000060: 9f17 cc3d 07f1 c43e c806 1fbd 8c61 13bc
00000070: f3c7 973e 38eb 64bd 8cee b73e 7009 55bc
00000080: 00fa a03d ca44 9a3e d531 1dbd 36c6 5f3d
00000090: 24c6 34bd d3c1 8a3e df1b a0bc dfda 9fbc
000000a0: c881 1ebd 295c 42bd 0446 3e3e 81d7 7f3b
000000b0: 6321 dcbc c7da c13c 72aa cb3e b420 903c
000000c0: 1fb8 92bc 7437 903e 7870 163e 9e97 953e
000000d0: 2ea5 353e 28f0 19bd 91c2 5b3e 007f 44bc
000000e0: b4a0 073b 835f 40bd 23c3 b93e c42e 35bd
000000f0: 6156 5e3e 658d cd3e 2d62 2dbd a8e6 863b
00000100: ebd1 303e 18ff 1abd 945c adbc 7049 ea3e
00000110: 7cbd bd3e d677 ce3c 9bad 7f3e e825 1f3e
00000120: 8b2d aabd 8c76 1b3c 4b10 d33d da69 953e
00000130: 1f1e 043d 0bd4 c33e 6cd7 7f3e 6e2e 20bd
00000140: f23d 6a3c e068 913e 8c98 6c3e 657e 473e
00000150: 05b6 02bd 78d9 143e 196f bf3e 05cf 5c3b
00000160: 7bd0 7d3d 272f 2b3e bf41 413c b2f0 883c
00000170: f1d5 3d3c 5b5f 533d 34b2 d63e 7341 9cbc
00000180: 9b5d 8fbc 0842 e03e 2b94 9239 df87 8b3e
00000190: d990 893e 5609 4a3e 70ae 643e 3666 a03d
000001a0: 09aa 033e dacc 9c3e 457e 8bbd 32ef fb3c
000001b0: b427 e4bc 7658 543e 4ea8 babc b8d6 d33a
000001c0: 5c53 923e 2b3e e6bc fbc1 20bd baf1 d33e
000001d0: 5cf1 9c3e e29e 553e d354 db3e c242 d23d
000001e0: cb2c 523e 2b4d 76bd ca61 aa3c 95f0 553e
000001f0: 21ee aabd 002f e5bc 31a2 543e 47e5 613e
-0.01095911 0.18079305 0.08159183 -0.038921084 -0.040151533 -0.0464322 0.034801748 0.23834041
0.004995494 0.18959993 0.22224082 0.2055805 0.28274697 -0.0003936536 0.011346734 0.3342739
0.0049821194 0.36642203 -0.052769396 -0.018737575 0.1300956 0.09949647 0.2577659 0.1827332
0.09965443 0.3846514 -0.038824826 -0.008995425 0.29644737 -0.055888385 0.35924184 -0.013002738
0.07860184 0.30130607 -0.0383776 0.054632388 -0.044134274 0.27101 -0.01954454 -0.019513546
-0.038697988 -0.047451172 0.18581396 0.0039038362 -0.026871389 0.023663891 0.39778477 0.017593719
-0.017910061 0.28167307 0.14691341 0.29217237 0.17738792 -0.037582546 0.2146094 -0.01199317
0.0020695152 -0.046966087 0.3628169 -0.044234052 0.21712638 0.40146938 -0.042329956 0.004116852
0.17267577 -0.037840933 -0.021162309 0.45759153 0.37058628 0.025203627 0.24968569 0.15541804
-0.08309468 0.009488713 0.10305842 0.2918232 0.03225529 0.38247713 0.2498452 -0.03910678
0.0142969955 0.28400326 0.23105067 0.1948181 -0.03191187 0.14536083 0.37389448 0.003369273
0.0619664 0.16717206 0.01179546 0.016716335 0.011586652 0.05160461 0.41932833 -0.019074177
-0.01750069 0.43800378 0.00027957684 0.272521 0.26868322 0.19730124 0.22332168 0.07831995
0.12857832 0.3062504 -0.068111934 0.030753706 -0.027850963 0.2073687 -0.022785332 0.0016162014
0.28579223 -0.028105816 -0.039247494 0.4139536 0.30652893 0.2086139 0.42838153 0.10266639
0.205249 -0.060132187 0.020798583 0.20892556 -0.08346201 -0.027976513 0.20764996 0.22060119

fc_layer.weight f4 [128, 128]
00000000: 6ab0 0c3d 0f12 03bd 5713 b63d 9e60 323d
00000010: 79d7 bc3b b5b0 143c 81bf 393d 8b9c 4dbe
00000020: 5eb2 fbbc 555a 38bd f783 34bb 863b b33d
00000030: e48d 82bc ee23 ddbc cffe dabd 2efe f73d
00000040: ed12 63bd 17a3 513d a1f6 2d3d 8f0b 513d
00000050: ee3b dfbd 392c 19be cca5 283e ffba cbbd
00000060: 8932 3fbe 6361 403d 981d 81bc 4618 d6bc
00000070: b91d 05be 05f7 5ebd 34a1 aa3c ebfe 2ebc
00000080: 07ad 46bc 6e23 113e dc41 d439 0ddf da3d
00000090: 275a 29bd 11dd 903c 996f 86bc 0d26 cd3c
000000a0: b530 29bd b75c 05bd 24d3 f63b 3982 26be
000000b0: c4b7 b43c 3cf5 853e 12b8 513d f9f4 993d
000000c0: 46f1 773d abb0 013d d15e c8bc 98c3 28be
000000d0: 805e c33d 0b47 72bd 5fc0 35bd 582f b8bd
000000e0: 9ecc 383d b069 52bd fc65 9bbd 94fc a53d
000000f0: b19b 743d de6f 743d 60af 9bbd 1d7a aebd
00000100: 9020 a3bd 61f7 343d 1f4f 3bbd 20de b53d
00000110: 4714 983d 6a5e 06be 6658 89bd f46d 353d
00000120: d988 083e 9cc6 c23d fa1a 89bc cc6e 1a3e
00000130: f447 bebd 3c37 bfbc c0ed b7bd 70ea 64bd
00000140: b1a2 873d 0138 b33d 3491 16be cc31 153e
00000150: 066b a9bd a3d5 8e3e c286 e93c 6161 67bd
00000160: f999 06bd 3de3 0b3e c5da bf3d 8154 303d
00000170: b189 753d ce2d 8b3e 0659 abbb 2350 4fbc
00000180: 74df 57bd 34ab e4bc 0556 74bd 979b 153c
00000190: 3ba1 93bd 6d7c 49bd 6a31 c33d 7330 2a3d
000001a0: 0389 66bd 14f0 a6bd fab5 cc3c 103d 72bd
000001b0: f8e4 6bbd a1cb fb3c 266b b6b9 36a8 6bbd
000001c0: 0eb9 15be f352 1ebd c18a 97bd a708 d5bd
000001d0: f2a6 d03d d361 4f3e f29b f93c 23dd 593d
000001e0: 019d 2f3d 86bb d0bc b5a0 953d d11d 6e3d
000001f0: edc9 9fbe ba16 803d 77e6 e23d e2ce d0bd
00000200: 7b8d 95bd 3cd0 c2bc 8bca 1b3e fd2d de3c
00000210: e247 01bd cfbe 57bd c28d 3c3d 7810 383e
00000220: fe6d 85bc e681 563d 0702 aebd 276d 453e
00000230: b08e 443d 589c 423c f67e 85be a980 b73c
00000240: 1c9a bebd 1c3e b4bc 4fed 1dbd a26b b1bd
00000250: 7807 2a3e a50b 7c3c 839b 3abe bbda 4b3e
00000260: 1ce0 afbd cb1e 673b 83c6 4ebd 4106 273d
00000270: 3a92 aa3d 9d03 513d 5889 b23c 13fa 8dbd
00000280: 553c cebd 48ff 0bbe fb08 b13d aaef 4abc
00000290: e357 a7bd b8a9 e7bc 0d1b cb3c 27af 5f3d
000002a0: 0b61 f83b 734f a53c 0324 443e f987 953e
000002b0: 8d87 76bd a8c7 95bd 887a 96bd 30df 88bc
000002c0: 3a97 613d 10a8 f4bd ae33 00bd d609 81bd
000002d0: 6e9e c73d daf6 973d 92bf 013e 9797 563d
000002e0: 54cc 9cbd 0c04 3c3d d78f f7bd 3112 8abd
000002f0: 1480 1d3e c1bb f3bc 972e 3a3e 62a9 9c3d
00000300: cd15 59bc 2593 63bc 850b 203d b65c 6dbc
00000310: 3e14 db3d 2692 28bc b1b8 23be 242d 9a3d
00000320: cb14 cd3d e369 6e3c 69af 5f3d cd63 84bd
00000330: 55d9 293b 00f0 c0bd 0039 a03d 0810 40bd
00000340: 38e3 853c 8dda 00be 7cb6 683d 874e 0bbe
00000350: a68a 843d 32c2 40be c380 dfbd fd60 0e3e
00000360: b9a3 893e ec5d edbe 5e9f fe3d 4f7e 813d
00000370: 97d9 503c 8ca8 103d 9e29 f5bc 6321 bf3d
00000380: 752b ef3c b402 10bd 6707 8ebd 6e7e 3c3d
00000390: 754f 2bbe eb1c 05be efb0 1fbe a81a d2bd
000003a0: d667 dabc e9bc ca3d eb40 723d 8fe6 543c
000003b0: bbc0 f1bc 634f acbd 933c f0bc b145 08bc
000003c0: 5139 76bd 4a32 51bc 926f ac3d 0234 babd
000003d0: a606 ffbc 806e 40be d453 9cbd d66d 04be
000003e0: b296 01bd bc54 7f3d 7dbb 153e 270c b83d
000003f0: 1670 eabe 5952 93bc ae57 7bbc 1077 833d
0.03434793 -0.031999644 0.088904075 0.043549173 0.005762991 0.009075333 0.045348648 -0.20079248
-0.0307247 -0.045008022 -0.0027544477 0.087515876 -0.0159368 -0.026994672 -0.10693132 0.12109028
-0.05543797 0.051180925 0.04247153 0.051036414 -0.109001026 -0.14958276 0.16469496 -0.09947776
-0.18671621 0.046967875 -0.015761182 -0.026134621 -0.1299962 -0.054434795 0.02082882 -0.010680894
-0.012126214 0.14173672 0.0004048486 0.10687075 -0.04134574 0.017683538 -0.016410636 0.025042558
-0.041306216 -0.032559123 0.007532494 -0.16260614 0.022060283 0.2616366 0.051200934 0.07517428
0.06053283 0.031662624 -0.024459274 -0.16480863 0.09539509 -0.059149783 -0.044372912 -0.08993405
0.045117013 -0.051370323 -0.07587811 0.08104816 0.05971879 0.059676997 -0.076018095 -0.08519385
-0.07965195 0.04418123 -0.045729753 0.088802576 0.074257426 -0.13121954 -0.06706314 0.044294313
0.13333453 0.09510538 -0.016736496 0.15081328 -0.09291068 -0.023341767 -0.08980894 -0.05588764
0.06622828 0.08750916 -0.14703828 0.14569777 -0.08272366 0.27897367 0.02850664 -0.056489352
-0.032861684 0.13660903 0.09367899 0.04304934 0.059945766 0.27183384 -0.0052291183 -0.012653383
-0.052703336 -0.027913667 -0.059652347 0.009131334 -0.07208487 -0.049190927 0.09530909 0.04155011
-0.05628301 -0.0815126 0.024989117 -0.059140265 -0.05759141 0.030736746 -0.00034793577 -0.057533465
-0.14621374 -0.038653325 -0.07399512 -0.10402041 0.10188092 0.2025216 0.030469868 0.053189408
0.04287434 -0.025480043 0.07306043 0.058133904 -0.31208745 0.06254335 0.11079114 -0.1019571
-0.07302376 -0.023780935 0.15213983 0.027121538 -0.031562693 -0.052672204 0.04603363 0.17975032
-0.0162878 0.052369975 -0.084964804 0.1927992 0.04798764 0.011878096 -0.26073426 0.022400217
-0.09306738 -0.022002272 -0.038556393 -0.086631075 0.16604412 0.015383636 -0.18223386 0.19907658
-0.08587667 0.0035266157 -0.050482284 0.04077745 0.08328672 0.051028837 0.021794006 -0.069324635
-0.10070101 -0.13671601 0.08644291 -0.012386242 -0.0817106 -0.02827917 0.024793172 0.054610398
0.007579928 0.020179486 0.19154362 0.292053 -0.060187865 -0.07313472 -0.0734759 -0.016707987
0.05507586 -0.11946118 -0.031299286 -0.06300704 0.09747015 0.0742013 0.12670735 0.05239066
-0.0765616 0.045902297 -0.12087982 -0.06741751 0.15380889 -0.029752614 0.18181835 0.07649495
-0.013249827 -0.013890062 0.039073486 -0.014487436 0.1069722 -0.010288751 -0.15988423 0.07528141
0.100137316 0.014551613 0.054610644 -0.06464348 0.0025916894 -0.09420776 0.07823372 -0.04689029
0.016343698 -0.1258337 0.056814656 -0.13604175 0.064717576 -0.1882408 -0.10913231 0.13904186
0.26882723 -0.4636072 0.12432741 0.063229196 0.01274719 0.03531699 -0.029927071 0.0933254
0.029195527 -0.035158828 -0.06935006 0.04601901 -0.16729529 -0.12999313 -0.15594839 -0.102589905
-0.026660841 0.09899313 0.05914394 0.012994423 -0.029510846 -0.08413579 -0.029325759 -0.008317397
-0.060113255 -0.0127683375 0.08419718 -0.09091951 -0.0311311 -0.18792152 -0.076331764 -0.12932524
-0.031637855 0.06233667 0.14622302 0.08986693 -0.4578864 -0.017983602 -0.015340729 0.06419194

fc_layer.bias f4 [128]
00000000: 2e5b d13e e01c aebe 3b52 23bc c7e4 09bf
00000010: 55f5 f33e f25c 063f 6459 04bf 32ad b8be
00000020: 58d1 d7be 3598 5ebe 0dde 693e 5dc9 c1be
00000030: 19e3 b4be f97f d0be be07 bb3d 4c87 6e3e
00000040: c876 bebe 12ff d5be 8958 13bf cb25 f3bc
00000050: fed7 09bf 7d86 b23e 603e 8b3e fa32 9bbd
00000060: 8219 f3be 3a56 c53e e3aa 703e 10ab 39bd
00000070: 33ae b3bc 0f95 f4be 1b0e 063f 7a8e b73e
00000080: e659 c13e 6e50 053e 3a22 02bf 70b8 4cbe
00000090: 3209 8abe d227 c33e 053e d63e 099c 533e
000000a0: 4fb2 c6be 8057 d13e 22eb aebe 04a7 e03e
000000b0: 06b7 a5be 746d b73e c05d 8f3e b198 bbbe
000000c0: 8e9a 03bf 57a4 a3be ae14 c23d 327f 0cbd
000000d0: 5cd1 06bf ee34 a0be 358d e4be 5b93 513e
000000e0: 039e 9b3e 1f5b cdbc 25c0 06bf ffd3 da3e
000000f0: 5342 1ebe dc54 053f aa24 f53e 2251 963d
00000100: ecf6 babe 50e1 d33e 91f0 cebe 828a d73e
00000110: fabe cd3e 7f46 a33e 3d3b 813e d0ae ecbd
00000120: f908 283e a8d4 b4be 4cc8 bd3e 5f8d bc3e
00000130: dc6c f53e 97e7 b3be ad5f 00bf 6929 a33e
00000140: 65d8 e1bc 0f2e b53e 52b4 0e3f 4da6 d23d
00000150: 7fee 893e d4e1 2e3d 82f0 013f 6909 e6bd
00000160: e65e 22be 7f10 203e 43eb 70be c13f 833d
00000170: 3f1b d2be c08b 563e 0099 86be 838b e23e
00000180: 921d 8e3e 959b b93e f009 f23e 7a32 033f
00000190: 9066 d73e c0c6 15bf 52c2 a9bd e3f3 3abc
000001a0: 847e cf3e 5480 3d3e 4c12 8fbe 0d78 933d
000001b0: b2d6 cfbe d2d0 95be 4661 cbbe 9f7c 463e
000001c0: 9576 023e e981 0b3e 9b16 ed3d bf78 053f
000001d0: 2a8d adbe 0531 06bf 2f2f ed3d 8bc2 bbbe
000001e0: d3e0 aa3e 2840 da3e cd20 683e cbf6 ddbd
000001f0: 230e 84be 814f c23e d566 52be 4ae9 d53e
0.40889877 -0.34006405 -0.009968336 -0.5386471 0.4764811 0.52485573 -0.516989 -0.36069638
-0.42151904 -0.2173775 0.22838612 -0.3784894 -0.35329512 -0.40722635 0.09132336 0.23293799
-0.37199998 -0.41796166 -0.5755697 -0.029681107 -0.538452 0.3486823 0.27196026 -0.075780824
-0.47480398 0.38542348 0.23502688 -0.045329154 -0.02193365 -0.47769973 0.52365273 0.35850888
0.377639 0.13018963 -0.50833476 -0.19992232 -0.2696014 0.38116318 0.41844192 0.20664991
-0.38807914 0.4088707 -0.34163767 0.43877423 -0.32366198 0.35825694 0.28001213 -0.36639932
-0.51407707 -0.3196132 0.094766006 -0.03430099 -0.5266321 -0.31290382 -0.44638982 0.20466368
0.3039399 -0.025067864 -0.5263694 0.42739865 -0.15454988 0.5208261 0.47879535 0.073396936
-0.3651651 0.41382837 -0.40417913 0.4209786 0.40184766 0.31889722 0.25240508 -0.1155678
0.16409673 -0.35318494 0.37066877 0.36826608 0.47934616 -0.35137627 -0.5014599 0.3186753
-0.027569005 0.35386702 0.55743897 0.102856256 0.2693977 0.042695835 0.5075761 -0.112322636
-0.15856513 0.15631293 -0.23527245 0.064086445 -0.41036412 0.20951748 -0.26288605 0.44247064
0.27756935 0.36251512 0.47273207 0.51248896 0.42070436 -0.58506393 -0.08289017 -0.011410686
0.4052621 0.18505985 -0.27943647 0.07200632 -0.40593487 -0.2926088 -0.3972265 0.19383477
0.12740548 0.13623776 0.11576577 0.5213737 -0.33896762 -0.5241855 0.11581265 -0.36671862
0.33374652 0.42627072 0.22668763 -0.10838088 -0.25792035 0.37951282 -0.2054704 0.41779548
